Jarvis/DataBase/PTH DataBase/Talks.pth (torch, 9495 bytes, 6 tensors)

l1.weight f4 [8, 126]
000000 55 35 df 3e f4 dd b1 3e 84 6a 3a bd a9 1e 34 3f
       0.43595377 0.3473965 -0.045511737 0.70359284
000010 6e 1f 03 3d 7d 2a 91 bf 52 87 01 3f d4 ff 74 3f
       0.032012396 -1.1341091 0.5059711 0.9570286
000020 f3 68 2b be ef 0e 18 bf 81 ea de be c0 00 82 bf
       -0.16739254 -0.59397787 -0.43538287 -1.0156479
000030 c0 11 22 bf 6a 65 83 bf f6 3e 2a 3f 74 ad c7 bd
       -0.63308334 -1.0265324 0.6650232 -0.097498804
000040 24 51 83 bf 4d e8 f6 bc e9 57 c9 3e 99 6c db 3f
       -1.0259137 -0.030140067 0.39324883 1.7142516
000050 34 25 02 3e 9c 46 5d 3f c4 8e 42 3f 10 ca 79 3f
       0.12709504 0.86435866 0.75999093 0.9757395
000060 35 22 f0 3e 27 03 3b 3f c5 58 d8 3e f7 85 ec 3e
       0.46901098 0.73051685 0.42255226 0.46195957
000070 64 c3 47 3f 92 6b 75 3c 32 86 0e bf 3a 69 0d 3e
       0.7803252 0.01497926 -0.55673516 0.13809672
000080 3c b6 a9 3d de 77 8a 3f 8c 8f 86 3f fd 12 2c 3e
       0.082867116 1.081783 1.0512557 0.16804118
000090 7a df fd be 3b 64 84 3e 6f 50 83 bf 74 5b d7 be
       -0.49584562 0.2585772 -1.0258921 -0.4206196
0000a0 45 2f 83 bf 37 55 dd 3e fb dd 7e 3f 38 8e 02 3f
       -1.02488 0.43229076 0.99557465 0.5099826
0000b0 97 8e a2 be fc f7 d2 3e 98 85 29 bf 37 13 c6 bd
       -0.31749412 0.41204822 -0.6621947 -0.09671634
0000c0 1f a8 6c be 9a c9 30 3e a6 03 80 3e 89 b0 b3 bc
       -0.23111008 0.17264405 0.25002784 -0.021934764
0000d0 2e 37 83 bf 9f 3a 22 3f 76 0f 2b 3f 8a 61 fd be
       -1.0251215 0.633707 0.66820467 -0.4948848
0000e0 5a 3b 09 3e 77 19 a4 3f a6 8b 05 3f 54 46 a6 3f
       0.13401547 1.2820271 0.5216621 1.2990212
0000f0 5f 52 80 bf 39 4f 23 bf 21 7a 22 3f 0a 90 26 3f
       -1.0025138 -0.6379276 0.63467604 0.65063536
000100 7a b0 ed 3e 1b 37 04 3f 05 86 07 bf c3 27 9a 3e
       0.46423703 0.51646584 -0.5293887 0.3010846
000110 67 51 14 3f 78 ff 0e 3f b4 cd cf 3e a0 4a 1c 3f
       0.5793671 0.55858564 0.40586627 0.6105137
000120 ee b0 3a be 80 9b 36 3f 32 74 9c 3f ab b8 4c bf
       -0.18231556 0.71331024 1.222296 -0.7996928
000130 e0 a5 ab 3e 4e db c4 bc 68 dc a4 bb 82 d3 94 3f
       0.3352499 -0.024030354 -0.0050311573 1.1627047
000140 60 73 98 3e c9 77 83 bf 53 57 63 bf 24 15 f8 3e
       0.29775524 -1.027093 -0.8880512 0.4845363
000150 39 8a 5f 3f f4 25 a3 be 9a c3 87 be 11 44 26 bf
       0.87320286 -0.31864893 -0.2651642 -0.6494761
000160 db 73 db 3e 44 ed 38 3f 6f f3 e5 be 3a 65 12 bf
       0.42861828 0.7223704 -0.44912288 -0.5718571
000170 65 05 f2 bd 01 3c 8f bf 40 1d 90 bf 2e 2b 83 bf
       -0.11817435 -1.1190187 -1.1258926 -1.0247552
000180 0e 5b 84 3f 6e 85 8f 3e 0d 45 88 3f 17 85 e3 3e
       1.0340288 0.28031486 1.0646073 0.44437477
000190 ee a7 c9 3f 1c bc fd bc ae 3f c4 3f 3e 1c 07 3f
       1.5754373 -0.030973487 1.5331933 0.5277747
0001a0 01 8b 1e be e6 db 30 be bd d6 44 bf 03 30 0c 3f
       -0.15482713 -0.17271385 -0.76890165 0.5476076
0001b0 b2 8c 06 be b3 03 a8 3e 97 2b 97 3e 5a 91 2b be
       -0.13139609 0.32815322 0.29525444 -0.16754666
0001c0 44 ec bf 3d d8 53 62 3f 82 32 83 bf a3 bc 56 3e
       0.09371236 0.88409185 -1.0249789 0.20970397
0001d0 32 86 84 3f 3b 06 c5 3f aa ed 01 bf 8f 66 50 3f
       1.0353453 1.5392526 -0.5075327 0.8140649
0001e0 ff e5 0f bf 45 61 8f 3f 28 55 83 bf 90 a7 47 be
       -0.5621032 1.1201559 -1.0260363 -0.19497514
0001f0 04 d5 37 3e 56 79 b5 be 39 59 5b be b1 80 11 bd
       0.17952353 -0.35444134 -0.21420754 -0.03552312
000200 8f db e3 3e 0c 59 34 3d 40 e8 d6 3e 92 a1 90 3f
       0.44503447 0.044030234 0.41974068 1.1299307
000210 f5 48 3b be e7 9f 82 bf 2c 9e a3 3e a3 c5 c1 3e
       -0.1828955 -1.0205048 0.31956613 0.37846097
000220 67 39 be 3e c9 06 20 3e 15 fe a4 bf 3e 35 dc 3f
       0.3715317 0.15627588 -1.289004 1.7203748
000230 c7 fb 21 3f de 27 2b 3f 31 3e d4 3f 0b fe 7d bf
       0.63274807 0.6685771 1.6581479 -0.99215764
000240 10 65 db 3c d4 aa 23 bf 28 14 66 be 62 1e e4 3d
       0.026781589 -0.6393254 -0.22468626 0.111386076
000250 f4 75 c0 be 2e a7 07 bf 2c 19 e8 bd c5 b3 83 bf
       -0.3758999 -0.5298947 -0.11332926 -1.0289236
000260 36 3a 3c bf ca b0 31 3f 2a 35 ba be 75 cd ab bd
       -0.7352632 0.69410384 -0.36368686 -0.08388797
000270 c6 27 6c 3f 60 84 c9 3d 58 d5 9a 3c ca 46 0f bf
       0.9224819 0.09839702 0.018900558 -0.5596739
000280 73 9f 09 bf 62 e0 f7 bd 5c 53 81 3f 01 02 95 3e
       -0.53758925 -0.121033445 1.0103564 0.2910309
000290 f1 72 d2 3f 6f 72 6b 3f 46 1a a0 3e 55 2e 7f bf
       1.6441327 0.91971487 0.31270045 -0.9968007
0002a0 89 12 83 bf 8b e7 65 bf cc a3 3f 3e ce f9 96 be
       -1.0240031 -0.8980643 0.18714827 -0.2948746
0002b0 51 46 22 3f 66 31 dc 3c dc 27 74 3e a1 2c fd 3e
       0.63388544 0.026879024 0.2384333 0.49448112
0002c0 45 e2 60 bd b7 f6 23 be 7a 26 9c 3f bf 8f 4d 3f
       -0.054903287 -0.16012083 1.2199242 0.80297464
0002d0 0b 3f 8f 3e c9 45 58 3f 3d 27 16 be f3 43 1b bf
       0.27977785 0.84481484 -0.14663406 -0.6065056
0002e0 89 d8 45 bd 25 cc 05 3f 4b d3 a9 3e 95 11 5c 3f
       -0.048302207 0.52264625 0.33169016 0.8596433
0002f0 aa 10 3b 3f 9c fa b1 3e bb 18 7b bf 8d ba 74 bf
       0.730723 0.34761512 -0.9808461 -0.95597154
000300 21 45 6c 3f bc de 4b 3f fd 68 8c 3e d7 49 8c be
       0.9229298 0.7963674 0.2742385 -0.27400085
000310 c1 74 d8 3d f3 70 c4 3e 70 b2 60 3e 56 eb 1b 3f
       0.10569144 0.38367423 0.21943069 0.6090597
000320 ca ae bf 3f 37 95 91 3f e6 b7 7c 3e a8 2b 2f 3f
       1.4975216 1.1373662 0.24679527 0.6842599
000330 fc fc 2f 3f 8a 5f 1f bf e6 c4 16 be b3 eb 1a 3e
       0.687454 -0.62255156 -0.14723548 0.15128975
000340 8b 50 af 3f 2b 78 3f 3f d5 39 c1 be 4f 80 55 bf
       1.3696455 0.74792737 -0.37739435 -0.8339891
000350 df 37 23 3e 90 b5 a2 3e db 44 82 bf 20 9d e5 be
       0.15939282 0.31779146 -1.0177263 -0.4484644
000360 ac 1a 62 3f 2f 87 64 3f 76 1c a9 bd ed 07 89 3f
       0.8832195 0.89268774 -0.082573816 1.0705544
000370 e5 d5 9d 3f 3a 99 31 bf 9c 8e c6 3f 86 99 df bd
       1.23309 -0.6937443 1.5512271 -0.10917954
000380 f3 61 ae bd 0d c6 db 3d 6d 6a 68 be 2c 3e b6 3e
       -0.08514776 0.107311346 -0.22696848 0.35594308
000390 82 8f 95 bf d9 95 b3 bf 6f 1a 47 be fc 16 7f 3e
       -1.168442 -1.4030105 -0.19443677 0.24911112
0003a0 f8 4f 99 3f b0 9c 49 bf 1c ef 1e be 30 f3 0a 3e
       1.197753 -0.7875471 -0.155209 0.13569331
0003b0 64 5b 33 bf 7d 3f 3f 3f 76 40 3e 3f 56 3d 87 3e
       -0.70061326 0.7470625 0.7431711 0.26413983
0003c0 df 5e 73 bf 88 cc 77 3e d4 36 c6 3f 08 87 81 be
       -0.95066637 0.24199116 1.5485482 -0.25298333
0003d0 60 cf 59 3f 0f dc 8e 3f 5f 5d 57 3f 50 31 98 3f
       0.85082054 1.1160907 0.8412685 1.1890049
0003e0 b4 e9 05 3e 3e f9 60 3e 20 d8 3f 3f 45 89 94 3f
       0.13077432 0.21970078 0.74939156 1.1604391
0003f0 da d4 fe 3e 0c 35 a2 3f 95 4e 95 bd 05 1f c0 be
       0.49771768 1.2672439 -0.07290379 -0.37523666

l1.bias f4 [8]
000000 96 ad 82 3f 5e b4 81 3f 3b 3b 34 3f a5 9b 78 3f
       1.0209224 1.0133169 0.7040288 0.97112495
000010 7e 70 3a 3f af 86 83 3f 33 3a 1d 3f 97 63 8c 3f
       0.728279 1.0275477 0.6141693 1.0967892

l2.weight f4 [8, 8]
000000 ef 84 c9 3f 97 f8 be 3f 6c 1c 5e bf e2 da eb 3f
       1.5743693 1.4919614 -0.8676212 1.8426173
000010 e0 61 d2 be 8b c0 b0 bf 08 2b e5 3f bf 00 05 be
       -0.41090298 -1.380876 1.7903757 -0.12988566
000020 48 71 a5 bf 05 12 be 3f 07 1f b5 bf 63 4f 0a 40
       -1.2925196 1.4849249 -1.4150094 2.1610954
000030 91 74 e3 be c3 34 00 3f 3d b0 81 3f 11 e9 4e 3e
       -0.4442487 0.5008051 1.0131909 0.20206095
000040 70 a5 73 3f 9d a6 96 be 35 11 8a 3f 7a 23 1a 40
       0.9517431 -0.2942399 1.0786501 2.4084153
000050 02 8b ee 3f 2d bd b8 3f fc bf 05 40 f8 6b db bf
       1.8636172 1.4432732 2.0898428 -1.7142324
000060 87 64 21 40 b4 c4 55 bf 92 3d 2f c0 34 7b 1e 3f
       2.5217607 -0.8350327 -2.738133 0.61906743
000070 c9 86 11 40 33 e5 a6 3f df 36 d1 bf 34 6b fa 3f
       2.2738516 1.3038696 -1.634487 1.9563966
000080 bd 0d dd bf 1b 17 ed 3f e1 b5 37 bf e6 79 db bf
       -1.7269818 1.8522676 -0.717619 -1.7146575
000090 e7 12 0a 40 3b 00 c9 3f 93 ba 3c 3f 13 4a 65 bd
       2.1574037 1.5703195 0.7372219 -0.055978846
0000a0 94 61 79 be 8e de 49 be 11 73 a9 be e8 c3 bf bd
       -0.2435363 -0.19713804 -0.330956 -0.09363538
0000b0 7d 70 98 be de 6e 8e be e0 cf 14 bc 64 d2 41 be
       -0.29773322 -0.2781896 -0.009082764 -0.18927914
0000c0 91 a9 ca bf 3e c1 58 3f 58 3f b3 be 14 cd ac 3f
       -1.5832998 0.84669864 -0.35009265 1.3500085
0000d0 22 3f 91 bf 9e 0b 20 40 08 d4 35 3f b6 e7 c8 3f
       -1.1347392 2.500709 0.7102666 1.5695713
0000e0 b7 62 75 3f 35 97 f7 3f 22 fc c4 3f aa 68 8f be
       0.9585375 1.934302 1.5389445 -0.2800954
0000f0 af bd 19 bf 6b 44 84 bf 58 ec d8 be d4 cb 20 40
       -0.6005506 -1.033338 -0.42367816 2.5124407

l2.bias f4 [8]
000000 18 df a9 3e ed 97 12 3f 77 b5 f1 3e a4 b4 9e 3f
       0.3317802 0.5726307 0.4720876 1.2398877
000010 e3 2b 89 be c7 ec 92 be 01 6f 53 3f 3b 85 76 3f
       -0.26791295 -0.28696272 0.82591254 0.96297044

l3.weight f4 [34, 8]
000000 41 a4 fa be cb d2 aa 3e 08 f9 2e 3f a1 6b f0 3e
       -0.4895344 0.33363947 0.6834874 0.46957114
000010 b5 e6 85 c0 e2 da 5b 3e c5 db c8 3d d7 5b dd bf
       -4.1844125 0.21470216 0.09807543 -1.7293652
000020 43 e0 08 3f c9 3a 1a 3e 11 90 e0 bd 8d 46 c5 bf
       0.53467196 0.15061487 -0.109649785 -1.5412155
000030 5a a7 78 3d af 8f a2 3e 89 f6 4a bf 74 64 ac 3e
       0.060706474 0.31750247 -0.7928243 0.3367039
000040 2e 45 27 3f 61 29 7b bf d2 38 95 bf 65 7d 44 3f
       0.65339935 -0.98110014 -1.1657965 0.76753837
000050 99 20 41 c0 d0 c1 93 bd 6a d9 16 c0 f7 53 ae 3e
       -3.0176146 -0.07214701 -2.35702 0.34048435
000060 eb 1c 9e c0 10 31 06 bf 2f 34 13 bf 7f bf 17 3e
       -4.94103 -0.52418613 -0.575015 0.14819144
000070 a6 3d 84 3f fa 10 4b be 4d a9 50 be cc 8b 5f be
       1.0331314 -0.19830695 -0.20377083 -0.21830672
000080 80 4c c7 be 31 d0 36 c0 36 51 ea bd 9b c7 46 be
       -0.38925552 -2.856457 -0.11441271 -0.19412081
000090 b0 75 0a 3e 41 00 9d be b3 77 e0 bf 82 5e 09 3f
       0.13521457 -0.30664256 -1.7536529 0.5365983
0000a0 7c b9 20 be 6a 8a 28 3e 56 1f 13 c0 7f 81 88 bf
       -0.15695757 0.16459051 -2.2987876 -1.0664519
0000b0 55 23 74 3f b6 11 1c 3e 8c fe f6 3d 9c 3d d6 3e
       0.9536641 0.15241131 0.1206027 0.4184388
0000c0 48 00 cf be 30 d5 10 be 4e 0c 0b 3f 02 6b 91 c0
       -0.40429902 -0.14143825 0.5431565 -4.5443125
0000d0 a3 e9 09 3f 26 8f 80 be c7 6f 6c 3e b2 67 30 be
       0.53872126 -0.25109214 0.23089515 -0.17227057
0000e0 f4 2e 91 bf b8 9c a2 bf 84 a7 c0 be 8d c7 a2 3f
       -1.1342454 -1.2704077 -0.37627804 1.2717148
0000f0 1f c8 f2 bf 40 e1 6b 3d fd f3 0c c0 19 73 51 be
       -1.8967322 0.057587862 -2.2023919 -0.20454063
000100 43 00 b1 3e 6b e0 ce 3e 0c bd c5 3e 76 c9 c5 3e
       0.34570512 0.40405592 0.38620794 0.38630265
000110 3f d7 5b c0 80 8c a1 3b 04 e9 4b c0 78 ea f7 be
       -3.4350126 0.004930079 -3.1860971 -0.48421073
000120 ec d9 b3 bd 8b 8e c6 bf 46 8e 34 3f 9c df 5f 3f
       -0.087818 -1.5512251 0.7052959 0.87450576
000130 c1 f6 0d c0 77 05 a3 be 9f 91 12 c0 b1 1c 32 c0
       -2.2181857 -0.31840107 -2.290138 -2.7830012
000140 71 ed 35 c0 9a dc bd bf e0 12 eb 3e 9e 0b 38 3f
       -2.8426173 -1.4832947 0.45912838 0.71892726
000150 0d 68 21 be 73 1c 8b 3e 02 9b c0 3d 73 98 5a c0
       -0.15762348 0.27170143 0.094045654 -3.4155548
000160 d0 88 6e c0 03 d4 07 3f 80 60 92 be e2 34 1e bf
       -3.7271004 0.5305788 -0.2858925 -0.6179944
000170 06 a7 e5 be c0 6a b4 3d 56 bd 9c 3f ce 43 0f be
       -0.4485399 0.088094234 1.2245281 -0.13990709
000180 26 37 a5 be a8 9a 4b 3f 61 d1 22 be 11 9e b9 bf
       -0.32268637 0.7953286 -0.15900184 -1.4501363
000190 63 d1 62 3f fc c7 75 be d1 e5 8c 3e e5 df d4 bf
       0.8860075 -0.24002069 0.27519086 -1.6630827
0001a0 bb 39 20 c0 d2 6f 00 3f d9 e9 37 c0 5a 02 76 3e
       -2.5035236 0.50170624 -2.873648 0.24024335
0001b0 f6 2a 29 bd 96 ea 71 be 30 16 59 3f 24 e9 af 3e
       -0.041300736 -0.23624644 0.8479948 0.3435756
0001c0 5b af 2f 3d 62 4a 52 be 40 8c 88 3f 65 db a8 bf
       0.04289184 -0.20536187 1.0667801 -1.3191954
0001d0 33 3b 9f bf 50 a7 38 bd 97 ff f5 be 6d 15 8b bf
       -1.2439941 -0.045081437 -0.48046562 -1.0865914
0001e0 19 65 8a bf 3a fd 05 3f 59 40 bb 3e c8 a1 02 3e
       -1.0812103 0.5233952 0.3657253 0.12757027
0001f0 d9 c4 2b be f0 07 b2 be 98 04 40 be 23 16 81 bf
       -0.1677431 -0.3477168 -0.18751752 -1.008488
000200 68 77 cd bf 99 b9 81 bf e7 12 e3 bf 5f 80 90 3f
       -1.6052065 -1.0134765 -1.7740144 1.1289176
000210 1b d6 37 c0 de 11 9c be 52 b4 3d 3f 7e 77 d6 3e
       -2.872443 -0.30482382 0.7410327 0.4188804
000220 49 d1 41 3f e7 8b 3f 3f 11 cb 0f 3e 9d 5d 29 bf
       0.7570997 0.7482285 0.14042307 -0.6615847
000230 92 ee 6d c0 1c f8 86 be 95 02 63 bf 02 3d 9e be
       -3.7176862 -0.26361167 -0.88675815 -0.3090592
000240 73 08 2f 3e 4e 3e 2e 3f 1c 9c b1 bf 7f 7b 17 c0
       0.17093067 0.6806382 -1.3875766 -2.3669126
000250 c7 08 1f bf 4e 07 73 3e b6 0c 0f 3f 21 38 41 3f
       -0.6212277 0.23733255 0.5587877 0.7547627
000260 d0 ac 12 be ba b6 bc bf 70 99 14 c0 a3 67 75 3e
       -0.14323735 -1.4743264 -2.321865 0.23965316
000270 66 6a 05 c0 c4 9d 90 bd 64 a2 96 bf ac a3 af 3f
       -2.084619 -0.070613414 -1.1768308 1.3721824
000280 68 7a 52 3f 39 a0 54 be ea e1 a3 be 07 85 13 c0
       0.8221803 -0.20764245 -0.32008296 -2.3049943
000290 84 ed 25 c0 78 30 0f 3e c6 92 4b bf e1 d6 83 3f
       -2.5926218 0.13983333 -0.79520833 1.0299951
0002a0 da 3e 50 3f c9 86 41 bf 88 c7 70 3f 10 87 d0 bf
       0.81345904 -0.7559629 0.9405446 -1.6291218
0002b0 79 76 37 c0 58 2f 9f 3d 94 b1 32 c0 9b 69 c8 bb
       -2.866606 0.07772702 -2.7920885 -0.006116105
0002c0 73 c2 42 3e 38 6a 2a 3f f2 69 e5 3e 76 5e 46 c0
       0.19019489 0.66568327 0.44807392 -3.0995154
0002d0 54 65 6b c0 90 47 11 3e 20 3c b2 3e 72 9b 02 3e
       -3.6780596 0.14187455 0.34811497 0.1275461
0002e0 e6 90 b1 bf 43 5f 4f bf 9b 62 49 bf 26 bf 12 bf
       -1.3872344 -0.8100473 -0.78666085 -0.5732292
0002f0 c6 5a 98 bf 92 8f 33 3e 2a 18 41 bf 68 25 55 bf
       -1.1902702 0.17535236 -0.75427496 -0.832602
000300 8f 99 fe bf 57 fe 94 bf 61 57 50 3e 41 e4 1c 3f
       -1.9890612 -1.1640118 0.20345832 0.6128579
000310 7a 19 03 3f 1a 90 7b be 39 0e 3c c0 16 0f 90 bf
       0.5121075 -0.24566689 -2.938368 -1.1254604
000320 ba 21 80 3f c2 f0 4c 3f 7f 81 eb bf b8 8e 8f bd
       1.0010293 0.8005487 -1.8398894 -0.07009643
000330 06 fc 46 c0 c9 55 1f be 29 8f 59 be 5c 2b c7 3e
       -3.1091323 -0.15560068 -0.21246018 0.38900268
000340 ec a0 c3 bf dc c8 b2 bf ac 40 14 c0 46 1a 85 bf
       -1.5283484 -1.3967547 -2.3164473 -1.0398643
000350 40 c2 6b bf 21 6e 7b be 84 0b 8e 3f be d5 97 3f
       -0.92093277 -0.2455373 1.1097264 1.1862104
000360 47 0e 25 be ce 1e 08 3e be 93 18 bd 75 02 9f bc
       -0.16118728 0.13293001 -0.037250273 -0.019410351
000370 23 07 f1 bf 71 21 6e be 6e 69 ff 3e 5c 71 7c 3e
       -1.8830303 -0.23254944 0.49885124 0.24652618
000380 92 95 86 3d ae 98 80 3f f2 ba c0 be 44 6f fb bf
       0.06571497 1.0046594 -0.37642628 -1.964333
000390 9e e2 32 bf 44 eb 20 be 80 5e 44 3f 40 f5 24 bf
       -0.6987704 -0.15714747 0.76706696 -0.6443672
0003a0 55 f1 0b c0 ab 22 9a bd 52 4b 82 3f ce 7c 11 c0
       -2.1866047 -0.07526144 1.0179236 -2.2732425
0003b0 c7 41 f7 3e 52 61 75 3e b0 03 06 3f ed 61 24 c0
       0.48292372 0.23962906 0.52349377 -2.568477
0003c0 75 4d df bf 6c 9d 48 bf 69 fe 05 3f c1 a1 d7 3e
       -1.7445513 -0.78365207 0.52341324 0.42115596
0003d0 73 5b 88 c0 ba 88 37 be fd f8 f6 bf f4 fc 83 3f
       -4.261163 -0.17923251 -1.9294735 1.031157
0003e0 ab 0f 2a c0 c4 e3 a5 bf c3 83 d8 3e c4 10 dd bf
       -2.6572063 -1.2960134 0.42288026 -1.7270741
0003f0 9e 4e c8 bf 20 f1 86 bd 00 6c ad 3e df cc 53 3f
       -1.5648992 -0.0658896 0.3387146 0.82734483

l3.bias f4 [34]
000000 06 48 20 3d c4 7f c3 bd 23 42 e0 3d df ff 2d bf
       0.039131187 -0.09545854 0.109501146 -0.67968553
000010 b0 70 1a bf b3 47 1f bf 1e b3 71 3c f3 63 fa bd
       -0.603282 -0.6221878 0.0147521775 -0.12226095
000020 46 a1 b0 3e 6e 66 52 3e 3a d0 9a 3e 6a a3 c2 3e
       0.34498042 0.20546886 0.3023699 0.380153
000030 cd 70 28 bf 18 08 aa be 9e 42 29 3f c1 a9 07 3e
       -0.6579712 -0.332093 0.66117275 0.1324835
000040 f3 da 3e 3e 72 5d 15 bf 53 0d 98 bd 23 21 b6 3e
       0.1863821 -0.5834571 -0.074244164 0.35572156
000050 af ae 14 3d b2 7c 32 bd e5 25 d6 bd b0 86 15 bf
       0.036299404 -0.04357595 -0.104564466 -0.5840864
000060 13 1c 19 bb 87 11 84 be e6 74 01 3f d0 31 0f 3f
       -0.002336268 -0.25794622 0.50569 0.5593538
000070 03 ab 38 bf d7 fe 4f 3e 95 e4 1d 3f fd 79 04 3f
       -0.72135943 0.20312057 0.61676913 0.5174864
000080 71 18 46 3c 47 b8 24 bf
       0.012090788 -0.64343685
